…
Key: max_bee_prob, Value: 1.0
Key: min_bee_prct_window, Value: 50.0
Key: bee_window_percentage, Value: 20
Key: filters_count, Value: 32
Key: kernel_size, Value: 3
Key: padding_to_remove, Value: 0
Key: sliding_window_step, Value: 2
Index is 883
Index is 238
Index is 56
Index is 241
Index is 162
__________________________________________________________________________________________________
Layer (type)                    Output Shape         Param #     Connected to                     
==================================================================================================
input_1 (InputLayer)            (None, 32, 32, 3)    0                                            
__________________________________________________________________________________________________
conv1_1 (Conv2D)                (None, 32, 32, 32)   896         input_1[0][0]                    
__________________________________________________________________________________________________
conv2d_1 (Conv2D)               (None, 32, 32, 32)   9248        conv1_1[0][0]                    
__________________________________________________________________________________________________
max_pooling2d_1 (MaxPooling2D)  (None, 16, 16, 32)   0           conv2d_1[0][0]                   
__________________________________________________________________________________________________
conv2d_2 (Conv2D)               (None, 16, 16, 64)   18496       max_pooling2d_1[0][0]            
__________________________________________________________________________________________________
conv2d_3 (Conv2D)               (None, 16, 16, 64)   36928       conv2d_2[0][0]                   
__________________________________________________________________________________________________
max_pooling2d_2 (MaxPooling2D)  (None, 8, 8, 64)     0           conv2d_3[0][0]                   
__________________________________________________________________________________________________
conv2d_4 (Conv2D)               (None, 8, 8, 128)    73856       max_pooling2d_2[0][0]            
__________________________________________________________________________________________________
conv2d_5 (Conv2D)               (None, 8, 8, 128)    147584      conv2d_4[0][0]                   
__________________________________________________________________________________________________
max_pooling2d_3 (MaxPooling2D)  (None, 4, 4, 128)    0           conv2d_5[0][0]                   
__________________________________________________________________________________________________
conv2d_6 (Conv2D)               (None, 4, 4, 256)    295168      max_pooling2d_3[0][0]            
__________________________________________________________________________________________________
conv2d_7 (Conv2D)               (None, 4, 4, 256)    590080      conv2d_6[0][0]                   
__________________________________________________________________________________________________
max_pooling2d_4 (MaxPooling2D)  (None, 2, 2, 256)    0           conv2d_7[0][0]                   
__________________________________________________________________________________________________
conv2d_8 (Conv2D)               (None, 2, 2, 512)    1180160     max_pooling2d_4[0][0]            
__________________________________________________________________________________________________
conv2d_9 (Conv2D)               (None, 2, 2, 512)    2359808     conv2d_8[0][0]                   
__________________________________________________________________________________________________
up_sampling2d_1 (UpSampling2D)  (None, 4, 4, 512)    0           conv2d_9[0][0]                   
__________________________________________________________________________________________________
cropping2d_1 (Cropping2D)       (None, 4, 4, 256)    0           conv2d_7[0][0]                   
__________________________________________________________________________________________________
concatenate_1 (Concatenate)     (None, 4, 4, 768)    0           up_sampling2d_1[0][0]            
                                                                 cropping2d_1[0][0]               
__________________________________________________________________________________________________
conv2d_10 (Conv2D)              (None, 4, 4, 256)    1769728     concatenate_1[0][0]              
__________________________________________________________________________________________________
conv2d_11 (Conv2D)              (None, 4, 4, 256)    590080      conv2d_10[0][0]                  
__________________________________________________________________________________________________
up_sampling2d_2 (UpSampling2D)  (None, 8, 8, 256)    0           conv2d_11[0][0]                  
__________________________________________________________________________________________________
cropping2d_2 (Cropping2D)       (None, 8, 8, 128)    0           conv2d_5[0][0]                   
__________________________________________________________________________________________________
concatenate_2 (Concatenate)     (None, 8, 8, 384)    0           up_sampling2d_2[0][0]            
                                                                 cropping2d_2[0][0]               
__________________________________________________________________________________________________
conv2d_12 (Conv2D)              (None, 8, 8, 128)    442496      concatenate_2[0][0]              
__________________________________________________________________________________________________
conv2d_13 (Conv2D)              (None, 8, 8, 128)    147584      conv2d_12[0][0]                  
__________________________________________________________________________________________________
up_sampling2d_3 (UpSampling2D)  (None, 16, 16, 128)  0           conv2d_13[0][0]                  
__________________________________________________________________________________________________
cropping2d_3 (Cropping2D)       (None, 16, 16, 64)   0           conv2d_3[0][0]                   
__________________________________________________________________________________________________
concatenate_3 (Concatenate)     (None, 16, 16, 192)  0           up_sampling2d_3[0][0]            
                                                                 cropping2d_3[0][0]               
__________________________________________________________________________________________________
conv2d_14 (Conv2D)              (None, 16, 16, 64)   110656      concatenate_3[0][0]              
__________________________________________________________________________________________________
conv2d_15 (Conv2D)              (None, 16, 16, 64)   36928       conv2d_14[0][0]                  
__________________________________________________________________________________________________
up_sampling2d_4 (UpSampling2D)  (None, 32, 32, 64)   0           conv2d_15[0][0]                  
__________________________________________________________________________________________________
cropping2d_4 (Cropping2D)       (None, 32, 32, 32)   0           conv2d_1[0][0]                   
__________________________________________________________________________________________________
concatenate_4 (Concatenate)     (None, 32, 32, 96)   0           up_sampling2d_4[0][0]            
                                                                 cropping2d_4[0][0]               
__________________________________________________________________________________________________
conv2d_16 (Conv2D)              (None, 32, 32, 32)   27680       concatenate_4[0][0]              
__________________________________________________________________________________________________
conv2d_17 (Conv2D)              (None, 32, 32, 32)   9248        conv2d_16[0][0]                  
__________________________________________________________________________________________________
zero_padding2d_1 (ZeroPadding2D (None, 32, 32, 32)   0           conv2d_17[0][0]                  
__________________________________________________________________________________________________
conv2d_18 (Conv2D)              (None, 32, 32, 2)    66          zero_padding2d_1[0][0]           
__________________________________________________________________________________________________
activation_1 (Activation)       (None, 32, 32, 2)    0           conv2d_18[0][0]                  
__________________________________________________________________________________________________
dropout_1 (Dropout)             (None, 32, 32, 2)    0           activation_1[0][0]               
__________________________________________________________________________________________________
activation_2 (Activation)       (None, 32, 32, 2)    0           dropout_1[0][0]                  
__________________________________________________________________________________________________
dropout_2 (Dropout)             (None, 32, 32, 2)    0           activation_2[0][0]               
__________________________________________________________________________________________________
activation_3 (Activation)       (None, 32, 32, 2)    0           dropout_2[0][0]                  
==================================================================================================
Total params: 7,846,690
Trainable params: 7,846,690
Non-trainable params: 0
__________________________________________________________________________________________________
Analysing training image 0 out of 1000 images
Analysing training image 1 out of 1000 images
…
